…
Two errors of 5: MSE = 25 + 25 = 50

Model prefers two small errors over one big error!
```

**`metrics=['mae']`**:
- Additional metrics to track (not used for optimization)
- MAE easier to interpret than MSE
- Shown during training for monitoring

**`model.summary()`**:
- Shows model architecture
- Number of parameters
- Output shapes

**Example output**:
```
Model: "sequential"
_________________________________________________________________
Layer (type)                Output Shape              Param #   
=================================================================
lstm (LSTM)                 (None, 30, 50)            10400     
dropout (Dropout)           (None, 30, 50)            0         
lstm_1 (LSTM)               (None, 50)                20200     
dropout_1 (Dropout)         (None, 50)                0         
dense (Dense)               (None, 1)                 51        
=================================================================
Total params: 30,651
Trainable params: 30,651
Non-trainable params: 0
```

**Understanding output**:
- **Output Shape**: Size at each layer
- **Param #**: Number of weights to learn
- **Total params: 30,651**: LSTM has LOTS of parameters!

**Why so many parameters?**
- LSTM is complex (forget gate, input gate, output gate, cell state)
…
